quiz_model_final.pt (torch, 136994 bytes, 6 tensors)

layer1.weight f4 [128, 100]
00000000: 4b8d 5cbd 8a9e eabd 5a01 003d 658a 6a3d
00000010: fba8 c2bd 07eb af3c d5be 203d 00c3 bbbd
00000020: 4c4f 4c3d 7764 acbc 509f 913d 0c8d 933c
00000030: 0a11 9e3c 4f00 81bd 8e7f 79bd b2e9 47bd
00000040: 6c9f 5a3c 9e1b c5bd c1e4 2b3b cb69 313d
00000050: e99d e13b d0e7 d23b d924 fcbc 749d 413d
00000060: 8122 13bd 946e ec3c 3d56 8dbd cf68 2b3d
00000070: ecad e0bc df57 aabc 4822 fdbc bc1b ca3d
00000080: 536a f4bd ebb4 5f3d c68b e1bc 9ea3 1b3d
00000090: bcaa 433d 8ae7 353d 80d1 96bd 72b8 883d
000000a0: eb27 933d 9688 85bd 80ef aebd 9862 8c3b
000000b0: 7f07 a7bc f426 84bd d972 99bd e1ed 613d
000000c0: 6e6c d0bd aba6 593d d143 803d 81b1 27bd
000000d0: dee6 cfbd 4234 c1bd 66ae 163c 2abb bfbd
000000e0: 1cc4 d1bd 1c7a 15bb 29a5 54bd 3d79 df3c
000000f0: 33dc 55bd dfdb 4b3d ed75 f1bd 028d 163d
00000100: 0fd3 e4bd 4c25 d9bc feb5 4c3d 0727 6dbd
00000110: 2928 b0bb e969 1e3d 1f9d 65bb 98d9 fabc
00000120: 7ab6 8f3d c512 993d 1c72 a73c 9f50 91bd
00000130: a22d 333b 9d00 533c c888 943d 5ca3 53bc
00000140: eb13 01be 12f9 dcbc 291c 07bc 4870 323d
00000150: 1825 afbd b48b 97bd b333 47bd dbec b4bc
00000160: 92b9 90bc 4593 323d 6e9b 9e3c cdad 3fbd
00000170: 5f8b 223d 0d25 07bb 0d3a c7bd d2e3 ad3d
00000180: 7308 3ebb 64fe f8bd a3d5 24bd b9d6 1f3d
00000190: 0186 a4bd b09e c1bd a5a2 e5bd 5e72 e0bd
000001a0: 2b73 86bd 391e 95bc 1daf c3bd 89ab 72bb
000001b0: bc38 bbbd e5d5 a8bd 58e8 3f3d b4b7 5d3d
000001c0: af8b 80bd 6d2e a5bd 1fa4 69bc 8b5a 653d
000001d0: b4ed 07bd 17b8 babc 512c 48bd 5b69 623d
000001e0: 36a7 0a3c 55bf c1bd 4820 8a3b 482e f93c
000001f0: b03a 8bbd e60b e83c bdf6 f73c a48a 333c
00000200: 3ea5 c5bd 2b9d 6c3d d639 32bd 6f27 58bd
00000210: c5a8 a5bd 4b55 803b 320b 89bd 453b 8c3d
00000220: adc3 5e3d 404a b4bd c95e 5c3d 12d9 d43c
00000230: d646 ba3c 64f9 9abd eba0 a23d f75c 813d
00000240: fbe7 b4bb 05b6 623d fc4c f2bd 7a4a 7cbc
00000250: 5fe9 9c3d ec4c e4bd d4d3 0d3b 7575 af3c
00000260: ead4 a6bd 2436 04bd bab0 3bbd ac0f 04bd
00000270: 1a48 143d 152c 3e3c 1d54 6dbd 1ae5 40bd
00000280: cecd 03bd d1c0 b03d 40bc 343d 8e15 99bc
00000290: 885f c7bd e4bd 53b9 9e2d adbb 2e06 2e3d
000002a0: b06e 84bd 7bd8 8bbc 07a4 8ebd 47ab ddbc
000002b0: 20aa 6bbd 87a5 9bbd 7ddb c6bd 49eb edbd
000002c0: 21ba 48bd be2b 933d 4291 12bd a984 633d
000002d0: 4d6d 103d 5dd2 89bd c318 483d 4bb0 453d
000002e0: 2eea 253d 0bb9 0bbd 3545 d5bd bc74 dfbd
000002f0: 7679 a6bd 0b09 92bd 752e 9ebc c58e 943d
00000300: 5f5d db3d b46e ffbd c0d1 eebc 4ba7 de3c
00000310: e47e eabd dd53 7e3d bc93 2dbc 59cc 9ebd
00000320: 93b8 5cbd c401 293d 1e48 33bc 4b92 493d
00000330: 6e77 6bbd cad3 0a3e 5211 a7bd fecd b0bc
00000340: 1964 88bd 5821 3d3c f0c4 b73d f1f8 223e
00000350: d966 bbbd 080d a03d e0ff 973c 25ed 383c
00000360: 41d2 0fbd df97 0fbd e0fc cf3c 93f4 153d
00000370: afb0 863c 008c cc3c f1fd ad3d d218 b33d
00000380: a37a c23d 28c0 81bd eb6b e33b 61d3 9f3d
00000390: f45a a33d 5502 f03b 1459 143e 3d66 8b3d
000003a0: f2ed 7dbd e8f8 41bd a8bc ac3c 3916 98bd
000003b0: a722 b93d a568 c83d 3c6c 0d3d d889 5f3d
000003c0: 0b5d 4fbd a690 5c3d b66f 463d 0df5 b83d
000003d0: 9286 373d c8e2 b63b e2cf 0bbd 93e8 9c3c
000003e0: 88d1 aa3d 67de b93c 0f2b cbbc 4ffa 71bd
000003f0: a055 86bd 6736 6f3d 06e4 a53d 174f 68bc
-0.053845685 -0.1145602 0.03125129 0.05726089 -0.09504887 0.021474374 0.03924449 -0.09168053
0.04988031 -0.021044 0.071104646 0.018011592 0.019295234 -0.06298887 -0.06091266 -0.048806854
0.013343673 -0.09624408 0.0026228877 0.043313783 0.0068852794 0.0064363256 -0.03077929 0.0472693
-0.035921577 0.028861322 -0.06901214 0.041848 -0.027426682 -0.020793853 -0.030900136 0.09868571
-0.11934342 0.054615896 -0.02753247 0.037997834 0.047770247 0.044410266 -0.07364178 0.06675805
0.07185348 -0.06520192 -0.08541775 0.004284214 -0.020389317 -0.06452742 -0.074926086 0.0551585
-0.10176931 0.053137463 0.06262935 -0.040940765 -0.10151456 -0.094337955 0.009196853 -0.093618706
-0.10242483 -0.0022808379 -0.05191532 0.02727949 -0.05221195 0.049770232 -0.11790071 0.03675557
-0.11173069 -0.026507042 0.04997825 -0.057898548 -0.005375881 0.038675223 -0.0035036278 -0.030621335
0.070172265 0.07474283 0.020440154 -0.070954554 0.0027340432 0.012878564 0.072526515 -0.012917366
-0.12605254 -0.026974235 -0.00824646 0.04356411 -0.08551997 -0.07399693 -0.04863329 -0.022085598
-0.017666612 0.04359748 0.019361224 -0.04679661 0.039683696 -0.002062145 -0.09727869 0.08490719
-0.0028996735 -0.12157896 -0.040242802 0.039023135 -0.08033372 -0.09454095 -0.112126626 -0.10959314
-0.06564935 -0.018202888 -0.095548846 -0.0037028512 -0.091416806 -0.08243922 0.04685244 0.05413027
-0.062766425 -0.08065496 -0.014260321 0.05599455 -0.033185676 -0.022792859 -0.04887039 0.055276256
0.008462718 -0.09460322 0.004215274 0.030417576 -0.06798303 0.028325986 0.030269021 0.0109583475
-0.09650658 0.057767075 -0.043512188 -0.05277198 -0.08088831 0.0039164177 -0.066915885 0.06847242
0.05438583 -0.088032246 0.05380133 0.025982413 0.022738855 -0.07567099 0.07940849 0.0631656
-0.0055208183 0.05534937 -0.1183109 -0.015398616 0.076616995 -0.11147484 0.0021641152 0.021418313
-0.08146079 -0.032278195 -0.045822836 -0.03224151 0.036201574 0.01160719 -0.057941545 -0.04709349
-0.032178693 0.08630527 0.04412484 -0.018687036 -0.09735018 -0.00020193268 -0.005284979 0.042486362
-0.064664245 -0.017071 -0.069648795 -0.02705921 -0.05753529 -0.07599931 -0.09709833 -0.11617143
-0.04900563 0.071860775 -0.03578306 0.055546436 0.035260487 -0.06729577 0.04885174 0.04826383
0.040506534 -0.034112018 -0.10413591 -0.10910937 -0.081286356 -0.07130631 -0.019309262 0.072537936
0.107111685 -0.12472287 -0.029152751 0.02717938 -0.11449984 0.062091697 -0.010594305 -0.0775382
-0.05388696 0.04126145 -0.010942487 0.04921178 -0.057486944 0.13557354 -0.081576005 -0.0215826
-0.06659717 0.011543594 0.0897311 0.15915276 -0.09150476 0.078149855 0.018554628 0.011287008
-0.035112623 -0.035056945 0.025389135 0.036610197 0.016441671 0.024969101 0.08495701 0.087449685
0.09496047 -0.06335479 0.006940355 0.07803989 0.07976332 0.0073244967 0.14487106 0.0680661
-0.0619945 -0.047356516 0.021086052 -0.07426114 0.090398125 0.09785584 0.03452705 0.054574817
-0.050625842 0.053848885 0.04844638 0.09031115 0.04480607 0.0055812337 -0.0341338 0.019153869
0.08340746 0.022689058 -0.024800805 -0.059076604 -0.065593004 0.05840149 0.08100133 -0.014179013

layer1.bias f4 [128]
00000000: fd19 bbbd 0537 753d f9c4 61bd a224 9fbd
00000010: 80f2 4dbd 4254 9fbd 1acc a4bd 7f89 c0bd
00000020: df48 b1bd 7703 243d d531 bcbd a994 a8bc
00000030: 8e93 ad3d 89b9 f5bd c609 333c cf11 fabc
00000040: 7fb7 acbd 5966 babd e063 8bbd 63b0 debd
00000050: 9791 a5bd 9666 ae3d 3c5e 0dbe e2d9 f83c
00000060: 69aa 823d 104a f8bd 5a59 f3bd 5834 b2bd
00000070: 306a 0d3d f633 1e3d 2223 4fbd 5fa5 6f3b
00000080: 0a95 85bd a804 04bd 201e 383d 61c4 e83d
00000090: c25e c5bd 1aee 10bc 3c0d cc3d 29c0 92bd
000000a0: b3ff eebd 9abc 893d 3589 04bd fd68 fe3c
000000b0: 2521 c83d 34bf f63c 0c9c 44bc 3b6f 503d
000000c0: b9cd b23d 75b9 9d3d 93f7 1e3d 63b6 b3bd
000000d0: b508 b1bc 14f5 963d 4913 c7b8 cacc 86bd
000000e0: 2ac2 f5bd ba93 c83d 223a b53c e140 90bd
000000f0: bc9c 0fbd 3d7d c3bd 29c9 4e3d 5914 943c
00000100: 5d75 923c 9b39 953d 9813 813d b3e8 cabc
00000110: 18b0 9e3d d584 85bd 6ba9 88bd 97a4 06bd
00000120: 232c a5bc f22c 053d 306e 893d b219 c4bd
00000130: 12be 8dbd f9d2 cf3d f219 963c 2988 763d
00000140: f4c7 f0bd 7299 51bd 0ff2 d7bd 3caa b3bc
00000150: 459a 593d 93c0 523d c7e9 82bc 5e5a eabd
00000160: add3 663c ca0e 94bd cca2 4c3c 01c2 60bd
00000170: 5953 993d aa0e 51bd 152b 69bb f239 90bd
00000180: b92a f9bd 51ae 90bb bfdd 9a3c 5aae 87bd
00000190: cec6 973b e653 af3b 8928 e03c c51f 8fbd
000001a0: 7d11 503d ec8d 06bc e8c8 943d 1109 80bd
000001b0: e46d cc3b cb93 c5bc 0591 eebd 2a72 93bc
000001c0: d7b3 843d 8a1c cebd cc47 983d 07bd 953d
000001d0: 8bc2 e4bd c635 1ebd a749 c2bd 705c 513d
000001e0: c6f9 62bd 3db8 ecbc b1ef ed3c a014 cfbb
000001f0: 6e26 a83d 7668 6a3b 19dc 6f3c bc1a d2bd
-0.09135816 0.059866924 -0.05511949 -0.07770659 -0.050280094 -0.07779743 -0.08046742 -0.09401225
-0.08656477 0.040042367 -0.09189192 -0.0205787 0.084754094 -0.11998279 0.010927623 -0.03052607
-0.084334366 -0.091015525 -0.06806159 -0.10873487 -0.0808441 0.085156605 -0.13805479 0.030377332
0.063801594 -0.12123501 -0.11882277 -0.0870139 0.034525096 0.038623773 -0.050570615 0.0036567075
-0.065225676 -0.032231003 0.044950604 0.11365581 -0.09637214 -0.00884583 0.09963462 -0.07165558
-0.116698645 0.06725426 -0.032357413 0.031055922 0.09771947 0.03012047 -0.012000095 0.050887328
0.08730645 0.07701389 0.038810324 -0.08775022 -0.021610597 0.07370964 -9.4926516e-05 -0.06582029
-0.119999245 0.097938016 0.022122446 -0.07043625 -0.035061583 -0.09545372 0.05048481 0.018076109
0.017878229 0.07286378 0.06302565 -0.024769163 0.07748431 -0.06519476 -0.06672939 -0.03287181
-0.020162648 0.032513566 0.0671047 -0.095752135 -0.06921019 0.10147662 0.018322919 0.060188446
-0.11756888 -0.051171727 -0.10544216 -0.02193176 0.05312564 0.051453184 -0.015980614 -0.114430174
0.014088553 -0.07229383 0.012489986 -0.054872517 0.074866004 -0.051039375 -0.0035578657 -0.07042302
-0.12166352 -0.0044153114 0.018904565 -0.06625052 0.0046318537 0.0053505776 0.027363079 -0.069884814
0.050797928 -0.008212548 0.07264882 -0.06251729 0.006238686 -0.024118325 -0.11648754 -0.017998774
0.06479614 -0.10064037 0.07435569 0.07311445 -0.111699186 -0.0386255 -0.09486704 0.051113546
-0.055413984 -0.028896445 0.029044958 -0.0063195974 0.08210455 0.003576783 0.014639878 -0.102590054

layer2.weight f4 [128, 128]
00000000: d5ae 8e3c a090 71bd d4b5 7abd 0819 29bd
00000010: a665 933d 2f2d 5d3d 8955 62bd 69e6 eabc
00000020: d52f 6bbd 81fc 2e3d 5ee3 0b3d 1a3e 66bc
00000030: b233 c2bc 0dff 9bbd e1c6 973d 8306 163d
00000040: 1a7c 843d 3995 3d3c ae09 b03d f039 5abd
00000050: d347 a13d d0b6 43bd 87b4 3cbd f597 1ebd
00000060: 7197 e6bb 63f7 83bd b382 753c 094a 653d
00000070: df26 9cbc d882 8d3d 9ecb a63d 1ad8 2f3d
00000080: 3cc0 44bd 22aa 63bd a5b3 cf3c 65e7 323d
00000090: 5623 2f3d 9c7c 8ebc d9fc e1bc 9824 7c3d
000000a0: 5e62 963c 04ed 393d 9299 04bd b907 813d
000000b0: d3c1 4fbd c28f 09bd c295 3e3d 708b 6ebd
000000c0: 64aa 2a3c e626 adbb 18bb 453c 5ed2 003d
000000d0: a5cb bd3d 36d9 12bc 3b5a 66bd 1b99 d43d
000000e0: 985e 57bc 66ee abbb 561e 0fbc e47e 1bbb
000000f0: 2af8 01bc 07ac 00bd 7cc6 503d 737a 75b9
00000100: 8972 5a3d a518 a13d bb83 0f3c e6de 5b3d
00000110: 8490 0fbb 10af e538 30ae 62bd d108 9e3d
00000120: e2f8 91bd 51d7 343d 2c39 4e3d 4ea6 243d
00000130: 6061 debb 1879 203d d3f0 763d 804f 9bbd
00000140: 6034 923d 9c94 033d 72cd 1dbd be43 66bd
00000150: 3698 8e3d 50ae 4e3d c411 2e3b 355a cbbc
00000160: e15d c9bc 91aa 523d ab5a 45bd 5b74 063c
00000170: 434a c43a f99f a43a b5d1 adbc 69c8 173d
00000180: d5ac 813d 6daa 43bc 7f9e 503d b307 e43c
00000190: 326c b83d ad54 983d 479c 66bd b88b 0d3c
000001a0: 4cad fdbc b836 16bb ecb2 0cbd 086c 993b
000001b0: 7b05 323d 8f26 823d 6caa 283d 12e5 10bd
000001c0: 76e5 183d 70e3 3abd a277 9f3d 7bdc 88bd
000001d0: 9899 743c 4c77 43bd e6ff 7e3d 831a fc3c
000001e0: 2ed5 843c 62cd bc3d 6b56 a93b 8b3f 6aba
000001f0: e256 543d a737 ed3a 16b7 983d daf8 eabc
00000200: e190 a1bd be6e 213b a5d3 c43c c936 17bc
00000210: 1f91 553c 1342 a4bd 9bdf 6abc bafd c8bd
00000220: d6c2 013c c949 96bd 5b67 07bd 8fbe 633c
00000230: 6478 69bd 67b1 053d 90fd 9bbb 1eea 76ba
00000240: 616d adbc 8ae7 bebd 1624 70bd 05b7 bf3c
00000250: df74 b93b 463f c73c fdb4 143c 993c 1eba
00000260: d5c5 693d 11ce 3f3c 65e2 aebd 11db 85bc
00000270: 813b ff3c 7ea4 123d ea62 15bc 3935 46bd
00000280: 4b93 29bd cea1 99bd 5a37 d0bd 6fe8 813d
00000290: 898f 85bd bae0 4abb 88d0 663d ab91 a3bd
000002a0: 3942 f93c 6ab3 e33c 494e dd3c a32f babd
000002b0: fd82 913c 36d7 aabd ed2a 1bbd 200a 80bd
000002c0: 2483 0b3d 5079 b1bc 98f9 2abc c0fc 41bc
000002d0: 744d 8ebd 2a1e f33b 7514 91bd 022b 803c
000002e0: b9be 2bbd e6da 503d 2b95 a1bd 4b4a c23c
000002f0: 5878 b4bd b866 2f3d 8ac8 02bd 4579 ed3c
00000300: b5ec 31bd bdbe 4c3d f51f 63bd ff73 64bc
00000310: a04c 1a3d cdc9 333d e3c7 203a 5225 b9bc
00000320: 4d17 9fbc e5ed 1fbd 19a5 083c 51ff 5b3c
00000330: cf66 bfbd fb08 c1bc 442a 4dbd 74a6 21bb
00000340: 3ead 76bd 8020 7dbd 800d 1f3d edf1 aa3c
00000350: 20c2 443d 54d8 2ebd ec6b cc3c 6a9c a23c
00000360: f586 2dbd b7c8 10bd 0643 273d cff3 f2b8
00000370: 910c 98bd d231 3abc 1a4b 133c 4f3d 113d
00000380: a569 fbbc 66d6 023d 0dc6 9bbd 4ef7 62bc
00000390: a1c2 87bd 9512 c43c 246e 69bc bbc2 9cbd
000003a0: 05ea 72bd 231d 19bd 438e 31bd 7c30 91bc
000003b0: 23a7 283d 70f5 c93c 7129 153d 838b 6fbd
000003c0: b2b7 8bbd 23b4 afbc ade4 5f3d 1696 66bd
000003d0: 3fa7 a5bb ccc2 813d f2d4 80bd 33ef e3bc
000003e0: 473f 52bc ad42 d0bd 3a99 253d 5c27 84bd
000003f0: 5194 23bd 840a c9bb 7d94 ffbc 7fa5 053c
0.01741735 -0.058975816 -0.06120856 -0.041283637 0.07197122 0.05399817 -0.055257354 -0.028674321
-0.057418663 0.042721275 0.03415238 -0.014052892 -0.02370629 -0.076170065 0.0741098 0.036627304
0.06468983 0.011571222 0.08595596 -0.05327791 0.078750275 -0.047781765 -0.0460706 -0.038719136
-0.007037096 -0.0644367 0.014984774 0.05597881 -0.019061504 0.06909722 0.08144306 0.0429307
-0.04803489 -0.055582173 0.025354216 0.043677706 0.04275831 -0.017393403 -0.027586387 0.061558336
0.018357452 0.04539205 -0.03237302 0.06300301 -0.050721955 -0.033584364 0.04652954 -0.058238447
0.010416601 -0.005284178 0.012068532 0.03145062 0.09267358 -0.00896292 -0.056238394 0.10380765
-0.0131451115 -0.005246925 -0.00873526 -0.0023726756 -0.007932702 -0.031414058 0.05097054 -0.00023410637
0.053331885 0.07866029 0.008759434 0.05367937 -0.0021906206 0.00010952179 -0.0553419 0.07716525
-0.07127549 0.044150654 0.050347492 0.040197663 -0.0067865103 0.039177984 0.06028826 -0.07583523
0.07138896 0.032124147 -0.038526006 -0.056216948 0.06962626 0.050459206 0.0026560882 -0.024823288
-0.024580898 0.051432196 -0.04818217 0.008206452 0.0014975745 0.0012559883 -0.02121816 0.03705636
0.06331793 -0.011942488 0.050932404 0.027835703 0.090050116 0.074380256 -0.05630138 0.008639269
-0.030966423 -0.0022920799 -0.03435032 0.004682068 0.043462258 0.06355011 0.041178152 -0.03537471
0.037328206 -0.045627058 0.0778649 -0.06682678 0.014929198 -0.047721192 0.062255763 0.03077436
0.016214933 0.09218861 0.0051677725 -0.000893586 0.05184067 0.0018098251 0.07456796 -0.028683115
-0.078889616 0.0024632658 0.024026701 -0.00922937 0.013035088 -0.08020415 -0.014335538 -0.098140195
0.007919988 -0.07338292 -0.03305755 0.013900413 -0.05699958 0.032639887 -0.0047604516 -0.00094190415
-0.02117032 -0.09321506 -0.058628164 0.0234027 0.005659684 0.024322163 0.009076354 -0.00060362514
0.057073433 0.011706845 -0.08539275 -0.01633981 0.031156303 0.035801403 -0.009117821 -0.0483906
-0.041400235 -0.07501565 -0.101668075 0.06343161 -0.06521518 -0.0030956701 0.056351215 -0.07986768
0.030427085 0.027795512 0.027014868 -0.09091117 0.017762655 -0.083418295 -0.037882734 -0.06251931
0.034060612 -0.021664292 -0.010435484 -0.011840045 -0.06948367 0.0074193673 -0.0708398 0.015645508
-0.041929934 0.050990008 -0.0788978 0.023717066 -0.08812016 0.04282257 -0.03192953 0.02898849
-0.043438632 0.04998659 -0.0554504 -0.013943671 0.03767073 0.043893624 0.0006133301 -0.022600804
-0.01942029 -0.039045233 0.008340144 0.013427571 -0.09345781 -0.023563853 -0.050089136 -0.0024665864
-0.06022381 -0.061798573 0.038831234 0.020867312 0.048036695 -0.042686775 0.024953805 0.019849975
-0.042365033 -0.035347667 0.040835403 -0.00011584872 -0.07424272 -0.011364417 0.008990074 0.03545886
-0.030690024 0.031942748 -0.076061346 -0.013852907 -0.066289194 0.023934642 -0.014247451 -0.076543294
-0.05930521 -0.037381303 -0.043348562 -0.017723314 0.04117502 0.024653167 0.036416475 -0.058482658
-0.068221465 -0.0214482 0.05466144 -0.056295477 -0.0050553377 0.06335983 -0.06290616 -0.02782402
-0.012832469 -0.101689674 0.04042933 -0.0645282 -0.039936367 -0.0061352868 -0.031198734 0.008157133

layer2.bias f4 [128]
00000000: 0ee0 323e f3b3 afbd ac9c a5bc cb11 453d
00000010: 89db aa3d 9abf 113c 24bc d0bd 2f5d 5dbd
00000020: ddbd 803d 7170 68bc 32de 383e 7ca6 233e
00000030: 9d69 9fb8 5299 e83c 4ec2 abbd dcb5 d9bc
00000040: b1d1 003e 97fc 723d b598 353e f083 793d
00000050: 2c5b 433e 8360 2a3e b7ac c03d 55d5 44bc
00000060: 1fd7 423d 2288 a4bd 905a 7b3d f713 613c
00000070: 0fbf d43d 1a26 48bd 8a67 94bd 0971 d7bc
00000080: 514f b93d 101b 3f3e 56c6 cd3d 78e8 4eba
00000090: 00e3 97bd fb0c e1bd b701 e43d e3f1 283e
000000a0: 1bae a9bd 81c5 673d dcff 3c3e 2174 073e
000000b0: 40ba 7b3d 8d79 ee3d 88c6 84bd 429b eebc
000000c0: 296d 523d 1c8f cebd 4cca d2bd 88ce 393e
000000d0: 3294 a6bd 3bcb 113e f15a a7bd 3375 f23d
000000e0: 5ba4 0a3d db37 e63c 774c 93bd d90d 8abb
000000f0: 38ad 783d d8af 1f3e e8f8 c03d 9b2e 94bd
00000100: 10a5 583e 2ece 08bd 6ac1 803d 254e 423d
00000110: 3d31 083d 6e6c 803d 7748 bc3c 0627 32bd
00000120: 3f2d 88bd b2e8 b8bc 4020 853c 9ed5 08bd
00000130: c892 893d eead 2b3e b2d4 b13d 91a3 2f3e
00000140: 1fb6 ff3b 6a6f 7dbc 5e5c 643d 162d 89bd
00000150: 394e c03d 87d3 903d 9236 373e 52f5 acbb
00000160: 0061 68bd e3c3 ea3d e3d5 6f3e 73de 473e
00000170: 3c85 923c 5adc d8bd 68e3 03bd 5e4a 0e3d
00000180: 315e 84bd 17ee 9fbc d0e9 233e 21df 583b
00000190: 3ff3 f83d c526 41bd 0403 a63d e588 3f3e
000001a0: 3cd7 163c 0ab5 fe3d ea6a 45bd 886e 8bbd
000001b0: 4bc6 02bd 47f9 2d3e a3f4 2c3d 0144 203e
000001c0: fa4b 88bc d128 7bbd 4fde 82bc d892 4abd
000001d0: e29e ff3d e2fd 1abd 29ac 52bd 83e0 b8bd
000001e0: e7cf 0bbd 931a c0bd d791 6cbd c13f 7c3d
000001f0: 12c6 db3d 4bdc ab3d ce84 a13d 2563 afbd
0.17468283 -0.085792445 -0.020216309 0.04811267 0.08342654 0.008895779 -0.10192135 -0.054043945
0.062862135 -0.014186964 0.18053511 0.15981477 -7.601383e-05 0.028393421 -0.0838667 -0.026575975
0.12579991 0.05932292 0.17734034 0.06091684 0.19077748 0.16638379 0.09407943 -0.012013753
0.047568437 -0.08033778 0.061365664 0.01373767 0.10388004 -0.04886446 -0.07246311 -0.026299017
0.090483315 0.18662667 0.10047595 -0.0007892917 -0.07416344 -0.10988804 0.111331396 0.16498522
-0.08285161 0.05658484 0.18456978 0.13227893 0.06145692 0.11644278 -0.06483179 -0.029126767
0.051373634 -0.1008589 -0.10292491 0.18145192 -0.08133735 0.14237683 -0.081716426 0.1183876
0.033848148 0.028102806 -0.07192319 -0.0042130766 0.06071207 0.15594423 0.09422475 -0.07235452
0.21156716 -0.033399753 0.06286891 0.047437806 0.033250082 0.06270681 0.022983773 -0.043494247
-0.06649255 -0.022571895 0.01625073 -0.033406846 0.067174494 0.16765568 0.086831465 0.1715224
0.007803693 -0.015468458 0.05575215 -0.066980526 0.0938992 0.07071596 0.1789191 -0.005278268
-0.05673313 0.11463144 0.23421435 0.19518451 0.017885797 -0.10588904 -0.032199293 0.03473889
-0.06463278 -0.01952271 0.16007161 0.003309198 0.121557705 -0.047156114 0.08106044 0.18704565
0.009206589 0.12436874 -0.048197664 -0.068081915 -0.03192739 0.16989623 0.04222549 0.15650941
-0.016637791 -0.061318222 -0.015975146 -0.049456447 0.12481476 -0.037839778 -0.051433716 -0.09027197
-0.034133818 -0.09380069 -0.05775627 0.061584238 0.10731138 0.08391627 0.078866586 -0.08563832

layer3.weight f4 [32, 128]
00000000: 0ddf 833c a113 76bd 7329 bcba c9cb 283d
00000010: 313b 5e3c 6e73 ccbc f9a0 8d3d 5622 fd3c
00000020: 3524 0bbd b874 b13b 7254 29bc d65b f53d
00000030: 337d 1abc b644 8fbc f9cb 75bc 79f0 933d
00000040: 7a73 903d 0e82 8bbc 2caa 2a3d ec6d 1e3d
00000050: 46d2 843d 19e5 00bd 4700 d23b 7b2f e93c
00000060: 7e8a 2abd ba60 b0bb ebfa 6fbd 7d8d 22bd
00000070: 5eaf 33bd 7546 ae3d 5d95 9e3d 906c 663c
00000080: ce94 773d 2ddf 033c 46a9 8a3c f35a d6bb
00000090: 6ecb 293d 95f0 20bd d379 bb3d 2a9a dfbb
000000a0: 604e 33bd 155d 5f3d 4011 e63d 4bd5 90bc
000000b0: a8fc 253b 9de3 263d 440b 433c 4888 16bc
000000c0: 20f0 943d c539 47bd 5de0 563c a581 d5bc
000000d0: dd35 073d b6da bd3d 00fd b33d e1d9 12bc
000000e0: fd03 e63d c286 b33b 1389 e73c 6f05 3f3d
000000f0: e950 37bb 7931 813d 32ba f7bb 8ef9 29bd
00000100: 379c 80bc 46dd cd3d 932d 37bd d75a 8bbd
00000110: bc45 593d 37df b63d 9137 66bd ad29 0cbd
00000120: 8b4d 2fbd afaa 923d 21c1 5ebc f08f 0abc
00000130: 4e4b 323d 92e0 803d 3fce b13c b6b1 d339
00000140: d5aa 25bd 2c48 95bc 9413 eabb 18eb 0d3c
00000150: f296 043e f054 f63d af16 243d 7944 d73b
00000160: 0d91 2cbd 0b1d 09bc a05b c23d 7af4 073a
00000170: b77f eb3d b599 793d 5270 aebc c156 c13d
00000180: 952d ebbc e922 bd3c b85b 10bd 529f be3c
00000190: 62fb 9c3d cd50 80bd 1c9e 91bc 339f 7a3d
000001a0: 5e91 b1bc e8df ce3d d060 a2ba 1b48 90bd
000001b0: 98d5 ad3c 941a f93c 9f25 863d a6b9 7a3d
000001c0: 2847 57bd fb54 753d 8b65 1a3c 1445 ad3d
000001d0: d2ed 1a3d b915 7ebc 9e8b 763d 2691 03bd
000001e0: 3771 2cbd a6a2 99bd 314b 38bc b48d 593d
000001f0: 609d 2d3d c210 5bbc 2704 503c 60b9 89bc
00000200: e3d5 923c c218 523c 05b9 00bd 7e42 50bd
00000210: c2fb 6c3c 7772 0f3c d774 6cbd 8688 6c3d
00000220: 5c80 41bb baca 973b 8a6f 603c 5dea 223d
00000230: 2a31 893d 879f 003d 07f3 8c3c 856a 453d
00000240: 995e da3c cac6 de3c 71ac f63c c14c 9f3c
00000250: e17e c53c 2317 be3b 973d 1b3c 8616 453d
00000260: d102 0a3d e5fd 4a3d b7b4 893d 011f c03c
00000270: 9ef8 95bc 38b3 693d 5e57 ef3c 5c91 cf3b
00000280: 42d6 053d 389e 853c e720 203d c3c3 8b3c
00000290: 6e2a 863c e648 673d 46c4 fc3c 6504 d73c
000002a0: e847 263d 3949 3a3d e97d 023d d06c b33c
000002b0: 3cf0 983c 3e5e d43c 6db3 69bd c41b 2bbd
000002c0: 6885 b83d dd88 ba3d 2ed1 613d 68fd 973c
000002d0: bc5b b83c bd48 b93c c5c0 33bd dad2 9b3c
000002e0: 5719 4c3d fa86 99bd 57fb f9bc ae2c 653d
000002f0: 6fe4 a2bc 6a90 6f3d 1320 373c fa37 afbc
00000300: 2a7b 7d3c b638 aa3d 8fe0 f0bc b190 0d3c
00000310: 3f2c 163d 7431 e3bc 30d4 573c ab99 b23d
00000320: b712 853d 2bee ecbb d22f 023d 5ca0 07b9
00000330: 656d 083d 942b 903c 2dc1 37bc adb8 953c
00000340: c9ea 7d3b 0068 94bc 3506 083c 4d37 593c
00000350: 78e4 393d 35b5 083d afe0 083d 4b8b a03d
00000360: 30fa 553d c283 a23c ffa5 e73c 3465 793c
00000370: 1151 f53c d29a 293c 9f02 883b 5015 333d
00000380: 06da a4bb cb89 d1bc 4913 e93c 35f8 01bd
00000390: fe1e db3c 2b14 9c3c e3aa 013d c04d a23c
000003a0: 8bea f5bc 2464 f53c b551 48bc 9e91 193c
000003b0: 2815 f6bc a810 143c 7edb 333d 21f3 193d
000003c0: 3054 4ebc f2f2 8abd 8ab9 4d3d 7dc6 96bd
000003d0: d66f 653d 91d8 ec3c cad7 09bd 3d83 c8bc
000003e0: f794 893b 4fc7 c7bc 16c0 873d 75de 54bc
000003f0: 42ea 963c 6bbf 663d f622 513d 6078 e43b
0.01609757 -0.060077313 -0.0014355615 0.04120997 0.013563917 -0.024957385 0.06915469 0.030900162
-0.033970077 0.0054155253 -0.010335075 0.11980407 -0.009429264 -0.017488819 -0.015002244 0.07223601
0.070532754 -0.017029788 0.041666195 0.03867905 0.06485419 -0.031468485 0.0064087245 0.028465023
-0.041635983 -0.0053826245 -0.058588903 -0.039685715 -0.043868415 0.08509532 0.077433325 0.014063969
0.060444646 0.008048815 0.016926419 -0.0065416037 0.04145377 -0.039291937 0.091540955 -0.0068237977
-0.043775916 0.05453213 0.11233759 -0.017679831 0.0025327597 0.040744413 0.011904541 -0.009187765
0.07272363 -0.048639078 0.013115016 -0.026062796 0.033010352 0.092702314 0.0878849 -0.008963079
0.112312295 0.005478711 0.028263604 0.04663604 -0.002797181 0.06308264 -0.007560038 -0.04149776
-0.015699489 0.1005197 -0.044721197 -0.06804436 0.05304502 0.089292936 -0.056205336 -0.034219433
-0.04279856 0.071614616 -0.01359585 -0.008457169 0.043528847 0.062928334 0.021704791 0.0004037746
-0.04044612 -0.01822289 -0.007143447 0.008662008 0.12948206 0.12027919 0.040060695 0.006569442
-0.04213052 -0.008368741 0.09490132 0.0005186271 0.11498969 0.060937602 -0.021293793 0.09440375
-0.028708259 0.023087936 -0.03524372 0.02326933 0.07665135 -0.062654115 -0.017775588 0.06118698
-0.021675762 0.101013005 -0.0012388472 -0.07045003 0.021220013 0.030408181 0.065501444 0.061212204
-0.052558094 0.059895497 0.009423624 0.08460441 0.03782446 -0.015508109 0.060191743 -0.032120846
-0.042100158 -0.07501726 -0.011248396 0.053113654 0.042386413 -0.013370695 0.0126963025 -0.016812027
0.017924255 0.012823286 -0.03142645 -0.050844662 0.014464321 0.008755318 -0.057728615 0.057747386
-0.002952597 0.004632321 0.013698468 0.039774287 0.066988304 0.031402137 0.017205728 0.048197288
0.026656436 0.0271944 0.030111523 0.019445779 0.024108352 0.005801098 0.009475133 0.048117183
0.033694092 0.04955854 0.06723922 0.023452284 -0.018307026 0.057055682 0.029216465 0.006334467
0.032675035 0.016310796 0.039093878 0.01706112 0.016377654 0.056466006 0.03085531 0.026247213
0.04059592 0.045479987 0.03185836 0.021902472 0.01866924 0.025923844 -0.05705588 -0.041774526
0.0900982 0.09108136 0.05513113 0.01855345 0.02250468 0.022617692 -0.04388501 0.01902144
0.049828853 -0.07496448 -0.030515356 0.055950813 -0.019884316 0.058487333 0.011177081 -0.021388996
0.015471259 0.08311598 -0.029403953 0.008640454 0.03666329 -0.027733542 0.013173148 0.08720716
0.0649771 -0.0072305403 0.031783886 -0.00012934342 0.03330745 0.017598905 -0.01121549 0.018276537
0.003874468 -0.018115997 0.008302261 0.013257814 0.0453839 0.033375937 0.0334174 0.07839068
0.05224055 0.019838218 0.028277395 0.015221883 0.029945882 0.010351853 0.004150703 0.043721497
-0.005030873 -0.0255784 0.028451579 -0.03173085 0.026748177 0.019052586 0.03165711 0.019812465
-0.030019065 0.029954977 -0.012226512 0.009373097 -0.030039385 0.009037174 0.043910496 0.03758538
-0.012593314 -0.067846194 0.050225772 -0.073620774 0.05601486 0.02891186 -0.033653058 -0.024476642
0.004198666 -0.02438703 0.06628434 -0.012992491 0.01842225 0.056334894 0.051058732 0.0069723576

layer3.bias f4 [32]
00000000: 81ad c53d 2019 3e3e 8f45 dd3d a4b6 933d
00000010: 1312 c43d 1a4d 8d3d 1dd0 2e3e c817 0d3e
00000020: af45 943d a1ea a13d 8426 413e ef56 623d
00000030: 4e7c 4e3e f537 043e ebcf 943d 02b0 cd3d
00000040: b9d5 383e 5e9f 7e3d df99 513d bbfe cf3d
00000050: b925 f23d 05da 8c3d ef8f 313d 90a5 603d
00000060: 3f3f aa3d 7ac0 233e ebaf 873d bff1 393e
00000070: 2b4c ca3d aece fe3d a512 163d 0a40 423e
0.09652234 0.18564272 0.10804283 0.0721257 0.0957376 0.068994716 0.17071576 0.13778603
0.072398536 0.0790608 0.18862349 0.055258688 0.20164606 0.12911971 0.0726622 0.100433365
0.18050279 0.062163703 0.051172134 0.10156008 0.11823601 0.068775214 0.043350156 0.054845393
0.083128445 0.15991393 0.066253506 0.18158625 0.09877809 0.12441765 0.036638875 0.18969741
